ml_service/artifacts/final_model.pt (torch, 100357 bytes, 5 tensors)

net.0.weight f4 [128, 119]
-0.609131 -0.7550015 -1.0142974 -0.44618812 -1.2290692 0.8034716 -0.6027495 -0.2105086
-0.51182044 0.59506446 0.36534366 1.951537 3.0166173 0.9043168 -0.15277293 0.1926267
0.31808493 0.60275024 0.9291695 1.0529205 0.3493075 2.6049 -0.28923103 1.4535273
0.520106 1.472822 2.1609344 -0.6544518 2.6462963 1.441564 1.7092222 -1.0165983
2.1395333 0.77508795 1.1476909 3.0025017 2.280057 2.5648282 2.678574 2.3350174
1.377609 2.0705464 3.5078173 -0.042270806 1.5476732 -0.47784284 -0.10116257 -0.9833379
-0.5254076 1.3560464 1.2016952 0.0061509786 -0.21871947 2.7434063 3.6715484 -0.009224838
1.5411754 0.12502232 0.79294664 0.68580633 1.5527663 3.3398948 0.109807715 0.6570102
-0.6299767 1.060998 0.53493017 1.2658733 0.88054216 0.8054472 2.8635843 2.178651
1.2489785 -0.7085563 0.15785035 2.6896634 -0.041251495 2.5615249 -1.285195 0.8480936
1.6632158 -0.26369873 2.480873 0.19859903 2.110813 2.3021553 1.8625265 0.070568375
2.0086627 -0.3274582 1.7920233 -0.41244844 0.38900626 1.5539623 2.7568147 2.0430129
-0.10268152 -0.009704744 0.035277877 0.74169785 2.1897266 4.1013055 0.8617341 0.97207534
2.1180978 2.022801 -0.15577477 0.4186237 0.714815 0.3024315 1.7969717 -0.23940352
0.3656356 0.095909424 3.0166204 1.1542362 0.9746865 0.48565805 2.8221447 0.022424074
0.038271684 -1.1115454 0.05282041 1.035918 -0.07043057 0.20247008 1.3642633 -2.512178
0.112130515 -0.31566995 0.29055485 0.83112365 0.13212132 1.0261706 0.3461505 -0.45057973
0.76057225 0.3870729 0.34025177 0.27574578 -0.0885271 1.1819193 0.470519 -0.009639576
0.33973393 -0.573801 0.93542427 -0.70788497 1.1543599 0.8240133 0.5674795 0.8164765
0.04335767 -0.34559926 0.24110049 0.6740999 -0.39195734 0.042572815 1.1167272 0.4726368
1.0315473 0.8085792 -4.9274554 0.26889274 -2.5344105 0.32377028 0.19341414 0.21865852
0.06530641 -1.648068 -1.7702801 -1.6931359 1.118082 -2.065292 -1.564046 -1.2104608
0.41647464 -1.6161206 -1.5064046 0.2891134 0.29716918 -0.85679394 0.40325814 0.262936
-1.6562424 -1.0177797 -2.2302108 0.6313501 -2.1041994 0.05565851 -1.7753671 -1.4314455
-1.5614171 -1.4125265 -0.015608944 -0.9315421 -1.0412713 0.2955987 0.2815452 -0.023438599
0.05441443 -1.7146151 -1.0807317 0.32789093 0.0022118145 -0.7063838 0.55718344 0.30223525
0.42417094 0.40432915 0.47462696 -1.3744831 -1.0231793 -0.8813024 -1.910778 -0.25852987
-1.7554886 -1.6332915 0.49181047 -0.49444234 -0.085920155 -0.4221776 -0.6357161 -0.30147883
1.0557199 -1.822106 -0.26295975 -1.9179182 0.48730204 0.18969683 -0.323645 -2.6376734
-1.5982442 0.032138005 -1.0785762 -0.514167 -0.37018773 0.28167164 0.46500304 -0.13928585
-0.06899991 -0.2012738 -0.24193692 -0.26221615 -0.5923081 -1.2380981 0.14477621 -0.47926375
1.5454104 0.12577903 0.19648968 -0.087995574 -0.29057214 -0.2660215 1.5138463 -0.5499579
00000000: 02f0 1bbf c747 41bf 7fd4 81bf c572 e4be
00000010: 2452 9dbf 51b0 4d3f cb4d 1abf 918f 57be
00000020: aa06 03bf 2556 183f 530e bb3e f7cb f93f
00000030: 4210 4140 4e81 673f 8270 1cbe ef3f 453e
00000040: 07dc a23e d74d 1a3f 0dde 6d3f 19c6 863f
00000050: 6fd8 b23e aeb6 2640 1716 94be 2f0d ba3f
00000060: ab25 053f 6e85 bc3f c04c 0a40 278a 27bf
00000070: eb5c 2940 2b85 b83f cbc7 da3f e51f 82bf
00000080: 1dee 0840 2a6c 463f 89e7 923f fd28 4040
00000090: 74ec 1140 2526 2440 c26d 2b40 ed70 1540
000000a0: 7e55 b03f d583 0440 1480 6040 2724 2dbd
000000b0: 281a c63f d1a7 f4be 522e cfbd 08bc 7bbf
000000c0: 1d81 06bf ee92 ad3f 26d1 993f 268e c93b
000000d0: fff7 5fbe f893 2f40 a6fa 6a40 c623 17bc
000000e0: 3c45 c53f da05 003e 8dfe 4a3f 0191 2f3f
000000f0: 0cc1 c63f d6c0 5540 dee2 e03d d231 283f
00000100: 2746 21bf c8ce 873f 2ff1 083f 2308 a23f
00000110: 366b 613f ca31 4e3f f744 3740 056f 0b40
00000120: 87de 9f3f f263 35bf 86a3 213e 7223 2c40
00000130: 54f7 28bd 06f0 2340 4581 a4bf aa1c 593f
00000140: 41e4 d43f 8503 87be a0c6 1e40 8b5d 4b3e
00000150: 8f17 0740 8356 1340 4567 ee3f 2786 903d
00000160: ee8d 0040 9aa8 a7be 0561 e53f 712c d3be
00000170: d42b c73e 3de8 c63f a76f 3040 b9c0 0240
00000180: b04a d2bd a600 1fbc 897f 103d e9df 3d3f
00000190: 7b24 0c40 e53d 8340 9b9a 5c3f eed9 783f
000001a0: ea8e 0740 9275 0140 6c83 1fbe d855 d63e
000001b0: 1efe 363f 4dd8 9a3e 2b03 e63f 3226 75be
000001c0: 9734 bb3e 296c c43d 4f10 4140 03be 933f
000001d0: 0e85 793f 2ca8 f83e 059e 3440 b1b2 b73c
000001e0: c5c2 1c3d 1f47 8ebf 375a 583d f698 843f
000001f0: e73d 90bd 5154 4f3e 2ea0 ae3f 86c7 20c0
00000200: afa4 e53d 7e9f a1be 9bc3 943e 85c4 543f
00000210: d04a 073e 8f59 833f a33a b13e 63b2 e6be
00000220: ddb4 423f 6b2e c63e 7b35 ae3e 8d2e 8d3e
00000230: b24d b5bd 2249 973f dee7 f03e 50ef 1dbc
00000240: 9bf1 ad3e 9fe4 12bf f777 6f3f f337 35bf
00000250: 11c2 933f 89f2 523f 5646 113f 9b04 513f
00000260: d097 313d 63f2 b0be 0ce3 763e d091 2c3f
00000270: a2ae c8be d560 2e3d ebf0 8e3f 73fd f13e
00000280: be09 843f 0cff 4e3f b7ad 9dc0 4fac 893e
00000290: c833 22c0 38c5 a53e 5b0e 463e 05e8 5f3e
000002a0: 5ebf 853d e4f3 d2bf 8a98 e2bf adb8 d8bf
000002b0: 501d 8f3f be2d 04c0 a932 c8bf 61f0 9abf
000002c0: 2a3c d53e 0add cebf ded1 c0bf ac06 943e
000002d0: 8f26 983e d956 5bbf da77 ce3e 8c9f 863e
000002e0: c0ff d3bf 9b46 82bf c6bb 0ec0 29a0 213f
000002f0: 34ab 06c0 2efa 633d 3b3f e3bf 9b39 b7bf
00000300: 84dc c7bf abcd b4bf a8bc 7fbc 8b79 6ebf
00000310: 6148 85bf b658 973e b126 903e 4e02 c0bc
00000320: aae1 5e3d 8278 dbbf 6b55 8abf 52e1 a73e
00000330: 17f4 103b 92d5 34bf 93a3 0e3f 94be 9a3e
00000340: ef2c d93e 3b04 cf3e 4e02 f33e 10ef afbf
00000350: 8af7 82bf 099d 61bf 6094 f4bf 075e 84be
00000360: dab3 e0bf b20f d1bf 95ce fb3e 8c27 fdbe
00000370: e8f6 afbd aa27 d8be 4abe 22bf 6f5b 9abe
00000380: d421 873f c53a e9bf a9a2 86be 587e f5bf
00000390: a77f f93e e33f 423e ccb4 a5be a4cf 28c0
000003a0: 4493 ccbf 24a3 033d c90e 8abf 73a0 03bf
000003b0: 3f89 bdbe 4437 903e e114 ee3e f3a0 0ebe
000003c0: d34f 8dbd b81a 4ebe 50be 77be 3241 86be
000003d0: 81a1 17bf 007a 9ebf 3740 143e 0f62 f5be
000003e0: 02d0 c53f 38cc 003e 9734 493e 0637 b4bd
000003f0: dfc5 94be f833 88be b7c5 c13f 0aca 0cbf

net.0.bias f4 [128]
-0.9070622 0.30226234 -0.2212488 -0.60151404 -0.97506315 -0.42583627 -0.014927665 -0.04068007
-0.56132877 -0.6496465 -0.48128203 -0.16556957 -0.31667888 -0.06188665 -0.16212511 -0.39518398
-0.39617535 -0.3380341 -0.37710974 -0.111046225 -1.2436359 0.54011536 0.55733 -0.086466245
-0.6734701 -0.0006541902 -0.4531393 0.044842813 -0.24937719 -0.49432036 -0.33877075 -0.1741933
-0.5529475 -0.69017535 -0.2641469 -0.5617121 -0.35120967 -0.60010797 -0.51122373 -0.56875163
-0.2945537 -0.026874328 -0.45125884 -0.35617772 -0.5215596 -0.11214795 -0.027296813 -0.43579143
-0.718321 -0.33622152 -0.3647531 -0.347472 -0.21518855 -0.4360428 -0.4152761 -0.35105523
0.008888153 -0.15224323 -0.57926077 0.3053814 -0.07194333 -0.82641435 -0.015670521 -0.22045808
0.055032693 -0.28092194 -0.4569538 -0.4460478 -0.30555907 -0.6153488 -0.17947586 -0.6152741
-0.51551926 -0.2550119 -0.07209074 -0.11401953 -0.4753737 -0.047071252 -0.03142193 -0.6187933
-0.46426123 -0.59864604 -0.4750543 0.13696054 0.02492393 -0.5936625 -0.27588242 -0.2637186
-0.37215772 -0.349047 -0.22560243 -0.14107808 -0.8861812 -0.97426814 -0.2196125 -0.07436364
0.24853356 -0.3036198 -0.50854766 0.24053337 -0.07139657 -0.33921966 -0.21334256 -0.39953184
-0.3664958 0.25012663 0.45312443 0.046402834 -0.17841887 -0.40290684 -0.76919824 -0.5514461
-0.25758997 -0.7709324 -0.02589593 -0.522364 -0.5127882 -0.17150007 -1.2069199 -0.65297145
0.21751085 -0.54266566 -0.1556141 -0.4704816 -0.21275564 -0.18904415 -0.29364938 -0.46098796
00000000: 3a35 68bf 21c2 9a3e 0c8f 62be d3fc 19bf
00000010: bd9d 79bf 3607 dabe 2a93 74bc 25a0 26bd
00000020: 3eb3 0fbf 3c4f 26bf 996a f6be 128b 29be
00000030: bc23 a2be db7c 7dbd 2004 26be 8e55 cabe
00000040: 7fd7 cabe ce12 adbe 8714 c1be 346c e3bd
00000050: 762f 9fbf 0045 0a3f 2ead 0e3f 3715 b1bd
00000060: 8968 2cbf f67d 2bba e001 e8be 19ad 373d
00000070: bc5c 7fbe 8f17 fdbe 5c73 adbe ba5f 32be
00000080: f88d 0dbf 55af 30bf 433e 87be 5dcc 0fbf
00000090: c1d1 b3be ada0 19bf 8fdf 02bf b599 11bf
000000a0: becf 96be 8d27 dcbc 660b e7be ed5c b6be
000000b0: ee84 05bf d3ad e5bd 919d dfbc 0e20 dfbe
000000c0: e3e3 37bf 3a25 acbe ebc0 babe dae7 b1be
000000d0: 635a 5cbe 0041 dfbe 129f d4be 83bd b3be
000000e0: 9e9f 113c a6e5 1bbe 6f4a 14bf f35a 9c3e
000000f0: 0657 93bd e48f 53bf 775f 80bc c3bf 61be
00000100: f669 613d 00d5 8fbe d9f5 e9be 6160 e4be
00000110: 3d72 9cbe 8087 1dbf 85c8 37be 9a82 1dbf
00000120: 12f9 03bf eb90 82be 4fa4 93bd 1283 e9bd
00000130: 2e64 f3be c9cd 40bd 48b4 00bd 3d69 1ebf
00000140: a6b3 edbe de40 19bf 513a f3be 623f 0c3e
00000150: 452d cc3c 44fa 17bf 7640 8dbe 2006 87be
00000160: 758b bebe 4ab6 b2be 5304 67be c676 10be
00000170: c5dc 62bf a369 79bf 19e2 60be f74b 98bd
00000180: 957f 7e3e 0e74 9bbe 2e30 02bf 614e 763e
00000190: 5d38 92bd 33ae adbe 7976 5abe 708f ccbe
000001a0: 56a5 bbbe 9910 803e edff e73e e610 3e3d
000001b0: 70b3 36be ce49 cebe 2dea 44bf 922b 0dbf
000001c0: d5e2 83be d35b 45bf b423 d4bc a6b9 05bf
000001d0: 1646 03bf b79d 2fbe 5a7c 9abf 2329 27bf
000001e0: 2abb 5e3e 23ec 0abf 4d59 1fbe f7e2 f0be
000001f0: 9ddc 59be ca94 41be 3659 96be 9d06 ecbe

net.3.weight f4 [64, 128]
0.81553197 -0.115183316 0.11550016 0.57331175 -0.033693563 0.03610019 -0.29390565 -0.44880682
0.22438633 0.25619295 -0.4093544 0.29744074 0.22244672 -0.32913238 0.023237687 -0.4947844
0.21878153 -0.0075720516 -0.33665514 0.057666853 -0.3596408 -0.33939454 0.34868157 -0.74077076
-0.9376349 0.5201993 -0.26469693 -0.35403585 0.01305766 0.63030124 0.34367076 -0.08408243
0.25229654 -0.13897438 0.29910693 0.45414436 -0.30598208 -0.021872437 0.5022083 0.65277505
0.20440507 -0.3792879 -0.46317524 0.11934452 -0.43980598 0.047022253 0.016808622 -0.021691304
-0.2711339 0.30404225 0.23253293 -0.8141537 -0.5761486 0.11472935 0.028282642 0.2518084
-0.38315824 -0.3000107 -0.9415344 0.644854 0.5199315 0.07198277 0.028091101 -0.13346794
-0.48805076 -0.15973493 1.0038403 -0.6450656 0.04840391 -0.35877 0.32689774 0.42340204
-0.23287772 -0.079727314 0.057052974 -0.4537164 -0.28518668 1.1366041 -0.49592575 -0.040515523
1.3643818 0.4183826 -0.28235555 0.014976198 -0.5623314 0.31183168 -0.48005998 0.4164704
-0.50830215 0.10904231 0.8581338 -0.9329683 0.6813456 0.5401976 -0.13375908 -0.5797586
1.196634 -1.0227926 0.71309817 -0.51743925 -0.030920453 0.026171273 -0.74266964 0.12912275
-0.40838003 -0.09772016 -0.8524487 -0.8077516 -0.296278 0.43302032 0.27227938 -0.34770906
-0.6171961 0.10498052 -0.47318155 0.13872494 0.6747548 0.048184615 0.57342184 -0.47605652
1.1599913 -0.47391486 0.073429 0.2518493 -0.3127035 -0.012711175 0.63757354 -0.40433547
0.5097343 -0.19519465 -0.21073037 0.4121786 -0.33690625 -0.049876012 -0.23499976 -0.22330724
0.03790351 -0.53758585 0.08169704 0.06601351 0.6241405 -0.29806206 0.15323834 -0.034154534
0.29929098 -0.31759524 -0.22368568 0.16432443 0.75761044 -0.44526863 -1.218838 0.5618533
-0.053750154 -0.29770714 0.03579483 -0.040586326 0.20350088 -0.75445056 0.305146 -0.15785323
0.1206722 -0.4112078 0.13838243 -0.15895233 0.85057724 -0.04711874 -0.23108722 0.26093018
0.22196463 0.018137343 0.43909755 -0.115033194 0.30921084 0.47097576 0.1332069 -0.064470686
-0.071015134 -0.18399921 -0.63979924 0.12063677 0.11787948 0.14660428 0.03333875 -0.062276725
-0.14445205 -0.0062583084 -0.20320335 -1.0761076 -0.7131687 0.38931674 -0.13981411 -0.058019564
0.38544592 0.039197855 -0.13115214 0.009112661 -1.0122119 -0.2281141 0.19098437 0.17803816
-0.34722936 -0.10482505 0.28213844 0.06470899 0.020557191 -0.41527343 -0.53256536 -0.3309524
0.046939548 0.21849571 0.0071089757 -0.12959471 -0.33970925 0.38958803 0.09936324 -0.1265689
-0.0064578364 0.24398561 -0.06482637 -0.17444919 -0.10440311 0.23740649 0.07178816 -0.39251137
-0.3060011 0.095044166 0.15915515 -1.6558073 0.6435283 0.09548206 -0.3857608 -0.17392941
-0.22602612 -0.2684344 -0.7684783 -0.28566578 -0.48514378 0.14503297 0.58468765 -0.88488317
0.1282116 0.20184971 -0.19121058 -0.45025742 -0.70417774 0.008238183 0.42053658 -0.69280237
-0.38746628 0.10749441 -0.067442514 -0.34747285 -0.22697318 -0.0058088647 -0.08192696 -0.18806662
00000000: b4c6 503f 3be5 ebbd 598b ec3d 8fc4 123f
00000010: 4302 0abd cbdd 133d cd7a 96be 02ca e5be
00000020: 88c5 653e b92b 833e e696 d1be 274a 983e
00000030: 13c9 633e 0a84 a8be f65c be3c 6254 fdbe
00000040: 4408 603e f91e f8bb 105e acbe 1434 6c3d
00000050: d722 b8be 1fc5 adbe 6486 b23e 27a3 3dbf
00000060: d708 70bf c82b 053f 5b86 87be 3044 b5be
00000070: ccef 553c 6c5b 213f 9df5 af3e 6933 acbd
00000080: 032d 813e 4d4f 0ebe 8b24 993e 9c85 e83e
00000090: afa9 9cbe d32d b3bc b990 003f 441c 273f
000000a0: 904f 513e 0632 c2be 4e25 edbe e66a f43d
000000b0: 402e e1be 689a 403d 3cb2 893c f6b1 b1bc
000000c0: 10d2 8abe 6dab 9b3e 1d1d 6e3e 606c 50bf
000000d0: 7a7e 13bf 39f7 ea3d 00b1 e73c 08ed 803e
000000e0: 512d c4be 019b 99be 6608 71bf 2715 253f
000000f0: 3b1a 053f b46b 933d 4f1f e63c d2ab 08be
00000100: cae1 f9be 8e91 23be d77d 803f 0523 25bf
00000110: 2e43 463d b4b0 b7be 245f a73e 27c8 d83e
00000120: 7f77 6ebe 1348 a3bd 61b0 693d 844d e8be
00000130: fd03 92be 3e7c 913f fbe9 fdbe 9bf3 25bd
00000140: 10a4 ae3f 3f36 d63e e890 90be ba5e 753c
00000150: f3f4 0fbf 67a8 9f3e 6cca f5be 9c3b d53e
00000160: 1720 02bf 9351 df3d a8ae 5b3f 03d7 6ebf
00000170: aa6c 2e3f 644a 0a3f 24f8 08be 0f6b 14bf
00000180: 4e2b 993f deea 82bf 9a8d 363f e676 04bf
00000190: e44c fdbc 2365 d63c 991f 3ebf c138 043e
000001a0: 3017 d1be 8221 c8bd 143a 5abf cfc8 4ebf
000001b0: c0b1 97be d7b4 dd3e 3468 8b3e ec06 b2be
000001c0: 9000 1ebf 0700 d73d da44 f2be e90d 0e3e
000001d0: bbbc 2c3f 3b5d 453d c6cb 123f aebd f3be
000001e0: 987a 943f f8a4 f2be f261 963d 64f2 803e
000001f0: ac1a a0be 8842 50bc 0538 233f 0f05 cfbe
00000200: f27d 023f 1be1 47be b4c9 57be 1309 d33e
00000210: fa7e acbe ca4a 4cbd c7a3 70be a7aa 64be
00000220: b640 1b3d 3a9f 09bf c750 a73d 1732 873d
00000230: acc7 1f3f 979b 98be 83ea 1c3e a0e5 0bbd
00000240: ab3c 993e d89b a2be dc0d 65be aa44 283e
00000250: c2f2 413f 40fa e3be e202 9cbf 9ed5 0f3f
00000260: 1f29 5cbd 126d 98be 9a9d 123d d93d 26bd
00000270: 8962 503e ac23 41bf 193c 9c3e 47a4 21be
00000280: fd22 f73d d489 d2be 20b4 0d3e 66c4 22be
00000290: 6ebf 593f 94ff 40bd 21a2 6cbe a498 853e
000002a0: b24a 633e c494 943c 65d1 e03e 8696 ebbd
000002b0: e250 9e3e bc23 f13e 6467 083e 3509 84bd
000002c0: 6270 91bd 4a6a 3cbe e2c9 23bf 6910 f73d
000002d0: cc6a f13d 6f1f 163e 378e 083d e115 7fbd
000002e0: 3deb 13be 7f12 cdbb 8a14 50be e5bd 89bf
000002f0: 3992 36bf 8654 c73e 6e2b 0fbe eca5 6dbd
00000300: 2b59 c53e ee8d 203d bf4c 06be 454d 153c
00000310: 2990 81bf be96 69be 6891 433e a34f 363e
00000320: 0cc8 b1be 84ae d6bd 7374 903e 2686 843d
00000330: 8e67 a83c b89e d4be 3456 08bf 9872 a9be
00000340: af43 403d 57bd 5f3e 69f2 e83b 7ab4 04be
00000350: 5fee adbe 1578 c73e f47e cb3d 479b 01be
00000360: 429c d3bb 5dd7 793e b0c3 84bd cfa2 32be
00000370: 4cd1 d5bd b01a 733e ac05 933d 40f7 c8be
00000380: 2dac 9cbe 84a6 c23d 91f9 223e 7ef1 d3bf
00000390: 45be 243f 198c c33d 7182 c5be 8d1a 32be
000003a0: 6473 67be 3c70 89be feba 44bf c942 92be
000003b0: c464 f8be 8683 143e 17ae 153f b487 62bf
000003c0: e749 033e b1b1 4e3e b5cc 43be 2488 e6be
000003d0: fe44 34bf 72f9 063c 9250 d73e 7f5b 31bf
000003e0: fb61 c6be 0726 dc3d 4d1f 8abd f6e7 b1be
000003f0: a86b 68be 4a58 bebb 52c9 a7bd 8994 40be

net.3.bias f4 [64]
-0.5271413 0.09408546 -0.35919303 -0.11338968 0.14779903 0.13630871 -2.3894522 0.43681455
-0.43932876 -0.15683037 -1.1106725 0.42215216 -0.35672918 0.54984957 -0.27881563 0.4840449
0.179836 -0.19216284 0.16950354 0.24659966 -2.0971954 0.7796642 0.06629452 -0.19665366
-1.287725 -0.7973995 -0.63137424 -0.0026543892 0.5614761 0.5363214 -1.4556645 0.25577503
-3.2789683 0.30380806 -0.31079236 -0.26073626 -0.15967199 0.5648353 -0.15869965 0.31987986
0.70007426 -1.8374676 0.80371505 0.25066394 -1.5632302 -2.923274 0.54647803 -0.98768353
0.29668003 0.19645983 0.11642029 0.73582184 0.64665645 0.40047395 0.25569367 -2.7120347
0.44423676 -3.6953773 -1.9980125 0.22651249 0.060394745 0.05869734 0.37111917 -0.4605392
00000000: bbf2 06bf e1af c03d 26e8 b7be d938 e8bd
00000010: a158 173e 8394 0b3e c9ec 18c0 28a6 df3e
00000020: b3ef e0be 2498 20be 842a 8ebf 5424 d83e
00000030: 35a5 b6be f1c2 0c3f ecc0 8ebe bcd4 f73e
00000040: ee26 383e 56c6 44be 5692 2d3e 9f84 7c3e
00000050: 7338 06c0 1398 473f 6cc5 873d 945f 49be
00000060: 2cd4 a4bf 6022 4cbf bea1 21bf 43f5 2dbb
00000070: e6bc 0f3f 5c4c 093f 3753 babf f2f4 823e
00000080: 9eda 51c0 bb8c 9b3e 2d20 9fbe 397f 85be
00000090: 0e81 23be 0c99 103f 2982 22be 4bc7 a33e
000000a0: 1138 333f 2332 ebbf 45c0 4d3f 0657 803e
000000b0: ed17 c8bf ec16 3bc0 fce5 0b3f d4d8 7cbf
000000c0: 72e6 973e c42c 493e c36d ee3d d25e 3c3f
000000d0: 478b 253f ec0a cd3e 48ea 823e fa91 2dc0
000000e0: 0073 e33e 1081 6cc0 e0be ffbf e4f2 673e
000000f0: 7b60 773d 9f6c 703d 5503 be3e cbcb ebbe

net.6.weight f4 [1, 64]
-0.11668317 0.0453015 0.16272345 -0.016879693 0.054114062 0.19129753 0.35612786 -0.041464984
0.2649432 0.19962291 0.15578409 -0.07071687 -0.031666636 -0.043997917 0.29286644 -0.10476921
-0.004315971 0.055593573 -0.005437854 0.0071938816 0.44148377 -0.061476 0.034982152 0.33750215
0.24308403 0.22949664 0.032365955 -0.154449 -0.13864844 -0.06300939 0.2227682 -0.111427404
0.71036816 0.14698829 0.20074654 0.08928953 0.088376574 -0.046512038 0.27999184 -0.028338341
-0.054685134 0.81997395 -0.187836 0.031159496 0.21041255 0.4990385 -0.12436591 0.17553549
0.15447299 0.053314447 0.05285197 -0.06618875 -0.008043791 -0.0079458235 -0.042691536 0.86398816
-0.07201435 0.73403883 0.38252357 -0.012318349 -0.024270933 0.07632027 0.086929 -0.13471103
00000000: 96f7 eebd 118e 393d faa0 263e 4847 8abc
00000010: b5a6 5d3d 80e3 433e 6456 b63e 30d7 29bd
00000020: a3a6 873e f369 4c3e dd85 1f3e 02d4 90bd
00000030: e0b4 01bd 2937 34bd 97f2 953e 3d91 d6bd
00000040: fd6c 8dbb 16b6 633d 0730 b2bb a7ba eb3b
00000050: 290a e23e 42ce 7bbd 7249 0f3d 15cd ac3e
00000060: 05eb 783e 2b01 6b3e 2a92 043d e127 1ebe
00000070: dbf9 0dbe 110b 81bd 591d 643e 0d34 e4bd
00000080: b0da 353f 1984 163e 8090 4d3e 6edd b63d
00000090: c7fe b43d 6883 3ebd 175b 8f3e cf25 e8bc
000000a0: 85fd 5fbd d0e9 513f 1558 40be 3342 ff3c
000000b0: 6376 573e f981 ff3e 8eb3 febd 93bf 333e
000000c0: 2b2e 1e3e 4060 5a3d 4f7b 583d f88d 87bd
000000d0: 1bca 03bc 332f 02bc 52dd 2ebd 542e 5d3f
000000e0: 427c 93bd f8e9 3b3f 21da c33e e7d2 49bc
000000f0: d6d3 c6bc cd4d 9c3d d507 b23d b0f1 09be
