ml_service/artifacts/final_model.pt (torch, 100357 bytes, 5 tensors)

net.0.weight f4 [128, 119]
-0.6113186 -0.7571894 -1.0164862 -0.444001 -1.231258 0.8034722 -0.6049379 -0.21050875
-0.51182073 0.59506476 0.3653438 1.9515382 3.0166197 0.9043174 -0.15277301 0.19262685
0.31808507 0.60275054 0.9291701 1.052921 0.34930766 2.604901 -0.28923118 1.4535279
0.5201063 1.4728225 2.1609356 -0.6544521 2.6462975 1.4415646 1.7092234 -1.0165989
2.1395345 0.77508855 1.1476915 3.002504 2.2800581 2.5648293 2.6785753 2.3350186
1.3776096 2.0705476 3.5078197 -0.042270824 1.5476744 -0.47784314 -0.10116264 -0.9833385
-0.5254079 1.356047 1.2016958 0.0061509833 -0.21871962 2.7434075 3.6715508 -0.009224842
1.5411766 0.1250224 0.79294723 0.68580663 1.5527675 3.3398972 0.10980779 0.6570105
-0.629977 1.0609986 0.53493047 1.2658739 0.88054276 0.8054478 2.8635855 2.176464
1.2489791 -0.7085566 0.15785043 2.6896646 -0.041251514 2.561526 -1.2851956 0.8480942
1.663217 -0.26369888 2.4808743 0.19859917 2.110814 2.3021564 1.8625277 0.07056841
2.008664 -0.32745835 1.7920245 -0.41244873 0.38900656 1.5539635 2.756816 2.043014
-0.10268159 -0.009704749 0.035277896 0.74169815 2.1897278 4.101308 0.8617347 0.97207594
2.118099 2.022802 -0.15577485 0.41862398 0.7148153 0.30243164 1.7969729 -0.23940367
0.36563575 0.0959095 3.0166228 1.1542368 0.9746871 0.48565835 2.822146 0.021925636
0.037626717 -1.1120334 0.05500449 1.0337298 -0.07043061 0.20028146 1.3637185 -2.5088913
0.11213059 -0.3156701 0.290555 0.83112425 0.1321214 1.0261712 0.34615064 -0.45058003
0.76057285 0.3870732 0.34025192 0.27574593 -0.088527136 1.1819199 0.4705193 -0.009639581
0.33973408 -0.5738013 0.93542486 -0.70788527 1.1543605 0.8240139 0.5674798 0.8164771
0.04335769 -0.3455994 0.24110064 0.6741002 -0.39195764 0.042572834 1.1167278 0.4726371
1.0315479 0.8085798 -4.927458 0.26889288 -2.5349572 0.32377043 0.19341429 0.21865867
0.06530645 -1.6480691 -1.7702813 -1.693137 1.1180826 -2.065293 -1.5640472 -1.2104614
0.41647494 -1.6161218 -1.5064058 0.28911355 0.29716933 -0.85679454 0.40622836 0.26293615
-1.6551713 -1.0177803 -2.230212 0.6313504 -2.1042006 0.05565855 -1.7775571 -1.4314461
-1.5614183 -1.4125271 -0.015608953 -0.9315427 -1.0412719 0.29559883 0.28154534 -0.023438618
0.054414466 -1.7146163 -1.0807323 0.32789108 0.0022118157 -0.7063841 0.55718374 0.3022354
0.42417124 0.40432945 0.47462726 -1.3744837 -1.0231799 -0.881303 -1.9107792 -0.25853002
-1.7554898 -1.6332927 0.49181077 -0.49444264 -0.08592019 -0.4221779 -0.6357164 -0.30147898
1.0557204 -1.8221072 -0.2629599 -1.9179194 0.48730233 0.18969698 -0.32364514 -2.6376746
-1.5982454 0.032138024 -1.0785768 -0.5141673 -0.37018788 0.2816718 0.46742436 -0.13765085
-0.06654318 -0.20255779 -0.23974837 -0.2622163 -0.5901197 -1.2375532 0.14477628 -0.47926405
1.5454116 0.1257791 0.19648983 -0.08799561 -0.2905723 -0.26602164 1.5138475 -0.54995817
00000000: 607f 1cbf 2ad7 41bf 381c 82bf 1954 e3be
00000010: dd99 9dbf 5bb0 4d3f 36dd 1abf 9b8f 57be
00000020: af06 03bf 2a56 183f 580e bb3e 01cc f93f
00000030: 4c10 4140 5881 673f 8770 1cbe f93f 453e
00000040: 0cdc a23e dc4d 1a3f 17de 6d3f 1ec6 863f
00000050: 74d8 b23e b3b6 2640 1c16 94be 340d ba3f
00000060: b025 053f 7385 bc3f c54c 0a40 2c8a 27bf
00000070: f05c 2940 3085 b83f d5c7 da3f ea1f 82bf
00000080: 22ee 0840 346c 463f 8ee7 923f 0729 4040
00000090: 79ec 1140 2a26 2440 c76d 2b40 f270 1540
000000a0: 8355 b03f da83 0440 1e80 6040 2c24 2dbd
000000b0: 321a c63f dba7 f4be 5c2e cfbd 12bc 7bbf
000000c0: 2281 06bf f392 ad3f 2bd1 993f 308e c93b
000000d0: 09f8 5fbe fd93 2f40 b0fa 6a40 cb23 17bc
000000e0: 4645 c53f df05 003e 97fe 4a3f 0691 2f3f
000000f0: 16c1 c63f e0c0 5540 e8e2 e03d d731 283f
00000100: 2c46 21bf cdce 873f 34f1 083f 2808 a23f
00000110: 406b 613f d431 4e3f fc44 3740 304b 0b40
00000120: 8cde 9f3f f763 35bf 8ba3 213e 7723 2c40
00000130: 59f7 28bd 0bf0 2340 4a81 a4bf b41c 593f
00000140: 4be4 d43f 8a03 87be a5c6 1e40 955d 4b3e
00000150: 9417 0740 8856 1340 4f67 ee3f 2c86 903d
00000160: f38d 0040 9fa8 a7be 0f61 e53f 7b2c d3be
00000170: de2b c73e 47e8 c63f ac6f 3040 bec0 0240
00000180: ba4a d2bd ab00 1fbc 8e7f 103d eedf 3d3f
00000190: 8024 0c40 ea3d 8340 a59a 5c3f f8d9 783f
000001a0: ef8e 0740 9775 0140 7183 1fbe e255 d63e
000001b0: 23fe 363f 52d8 9a3e 3503 e63f 3c26 75be
000001c0: 9c34 bb3e 336c c43d 5910 4140 08be 933f
000001d0: 1885 793f 36a8 f83e 0a9e 3440 649d b33c
000001e0: 791e 1a3d 1c57 8ebf 634c 613d 4251 843f
000001f0: ec3d 90bd 9516 4d3e 548e ae3f ad91 20c0
00000200: b9a4 e53d 839f a1be a0c3 943e 8fc4 543f
00000210: d54a 073e 9459 833f a83a b13e 6db2 e6be
00000220: e7b4 423f 752e c63e 8035 ae3e 922e 8d3e
00000230: b74d b5bd 2749 973f e8e7 f03e 55ef 1dbc
00000240: a0f1 ad3e a4e4 12bf 0178 6f3f f837 35bf
00000250: 16c2 933f 93f2 523f 5b46 113f a504 513f
00000260: d597 313d 68f2 b0be 16e3 763e d591 2c3f
00000270: acae c8be da60 2e3d f0f0 8e3f 7dfd f13e
00000280: c309 843f 16ff 4e3f bcad 9dc0 54ac 893e
00000290: bd3c 22c0 3dc5 a53e 650e 463e 0fe8 5f3e
000002a0: 63bf 853d eef3 d2bf 9498 e2bf b7b8 d8bf
000002b0: 551d 8f3f c32d 04c0 b332 c8bf 66f0 9abf
000002c0: 343c d53e 14dd cebf e8d1 c0bf b106 943e
000002d0: 9426 983e e356 5bbf 2afd cf3e 919f 863e
000002e0: a7dc d3bf a046 82bf cbbb 0ec0 2ea0 213f
000002f0: 39ab 06c0 38fa 633d fe86 e3bf a039 b7bf
00000300: 8edc c7bf b0cd b4bf b2bc 7fbc 9579 6ebf
00000310: 6648 85bf bb58 973e b626 903e 5802 c0bc
00000320: b4e1 5e3d 8c78 dbbf 7055 8abf 57e1 a73e
00000330: 1cf4 103b 97d5 34bf 98a3 0e3f 99be 9a3e
00000340: f92c d93e 4504 cf3e 5802 f33e 15ef afbf
00000350: 8ff7 82bf 139d 61bf 6a94 f4bf 0c5e 84be
00000360: e4b3 e0bf bc0f d1bf 9fce fb3e 9627 fdbe
00000370: edf6 afbd b427 d8be 4fbe 22bf 745b 9abe
00000380: d921 873f cf3a e9bf aea2 86be 627e f5bf
00000390: b17f f93e ed3f 423e d1b4 a5be a9cf 28c0
000003a0: 4e93 ccbf 29a3 033d ce0e 8abf 78a0 03bf
000003b0: 4489 bdbe 4937 903e 3f52 ef3e 58f4 0cbe
000003c0: ca47 88bd 4f6b 4fbe 9980 75be 3741 86be
000003d0: 1612 17bf 2568 9ebf 3c40 143e 1962 f5be
000003e0: 0cd0 c53f 3dcc 003e a134 493e 0b37 b4bd
000003f0: e4c5 94be fd33 88be c1c5 c13f 0fca 0cbf

net.0.bias f4 [128]
-0.90925086 0.30177513 -0.21879221 -0.60062003 -0.9759436 -0.42694113 -0.013292494 -0.038272016
-0.5648062 -0.64648026 -0.48247623 -0.1689137 -0.3150024 -0.06046017 -0.16068693 -0.3929674
-0.3944909 -0.33542722 -0.37589213 -0.10999717 -1.2444956 0.53978634 0.55614173 -0.082675315
-0.6700318 -0.0018472474 -0.45137525 0.04355193 -0.2508915 -0.49296305 -0.3366421 -0.17341813
-0.5513715 -0.6866704 -0.2625264 -0.5608699 -0.3498703 -0.5991617 -0.5127587 -0.5652511
-0.29107365 -0.025705485 -0.44907036 -0.35985422 -0.521682 -0.10858151 -0.02493287 -0.43451554
-0.71590585 -0.33276355 -0.363013 -0.34414652 -0.21410847 -0.4358761 -0.41131714 -0.35231686
0.010214833 -0.15180685 -0.58089465 0.30518475 -0.07297749 -0.8246973 -0.013276159 -0.21651326
0.05689992 -0.27975285 -0.4566193 -0.4428961 -0.3072423 -0.6172121 -0.1810571 -0.6125827
-0.5139985 -0.2574643 -0.07393033 -0.110557176 -0.47366738 -0.0488688 -0.03299443 -0.6161589
-0.46318936 -0.5956816 -0.47237656 0.13871045 0.026635043 -0.5954257 -0.27612016 -0.26502663
-0.3682144 -0.35082766 -0.22468033 -0.13968301 -0.88996595 -0.97458583 -0.22105056 -0.07055356
0.24766697 -0.30089253 -0.5050941 0.24389827 -0.06963912 -0.33791712 -0.21172564 -0.400613
-0.36339423 0.25281549 0.45640954 0.047578007 -0.17945716 -0.40186426 -0.76833487 -0.5530671
-0.25829983 -0.7738904 -0.022502076 -0.5237286 -0.5146318 -0.16953672 -1.2048475 -0.6492448
0.2162106 -0.53900504 -0.15880232 -0.46699402 -0.21275578 -0.19040827 -0.29334143 -0.45714316
00000000: aac4 68bf 4582 9a3e 110b 60be 3cc2 19bf
00000010: 71d7 79bf 0798 dabe c3c8 59bc 1ec3 1cbd
00000020: 2497 10bf bb7f 25bf 2007 f7be b7f7 2cbe
00000030: ff47 a1be 15a5 77bd 1d8b 24be 0633 c9be
00000040: b6fa c9be 1ebd abbe ef74 c0be 3246 e1bd
00000050: a24b 9fbf 702f 0a3f 4e5f 0e3f ad51 a9bd
00000060: 3487 2bbf 561f f2ba a81a e7be 8263 323d
00000070: da74 80be a765 fcbe 5a5c acbe 8694 31be
00000080: af26 0dbf a2c9 2fbf dc69 86be 2b95 0fbf
00000090: 3322 b3be a962 19bf 2744 03bf 4cb4 10bf
000000a0: 9b07 95be 4f94 d2bc 8dec e5be d03e b8be
000000b0: f48c 05bf fc5f debd 0540 ccbc d278 debe
000000c0: 9b45 37bf fc5f aabe d7dc b9be f933 b0be
000000d0: 403f 5bbe 272b dfbe 2998 d2be e062 b4be
000000e0: 1d5c 273c 4173 1bbe 83b5 14bf 2d41 9c3e
000000f0: 3975 95bd 5d1f 53bf 3f84 59bc a7b5 5dbe
00000100: e40f 693d c43b 8fbe 01ca e9be 47c3 e2be
00000110: dd4e 9dbe 9d01 1ebf 0867 39be 38d2 1cbf
00000120: 6895 03bf 5cd2 83be c968 97bd cd6b e2bd
00000130: 8884 f2be a72a 48bd 2b25 07bd 97bc 1dbf
00000140: 2827 edbe 977e 18bf 57db f1be 1d0a 0e3e
00000150: bc31 da3c d26d 18bf 9f5f 8dbe 92b1 87be
00000160: 9986 bcbe af9f b3be 9a12 66be 1009 0fbe
00000170: cfd4 63bf 757e 79bf 145b 62be 637e 90bd
00000180: 699c 7d3e 960e 9abe d94d 01bf 78c0 793e
00000190: f49e 8ebd 7903 adbe 9bce 58be 261d cdbe
000001a0: cf0e babe 0871 813e 83ae e93e 28e1 423d
000001b0: 9ec3 37be 27c1 cdbe 98b1 44bf ce95 0dbf
000001c0: e03f 84be ae1d 46bf 4656 b8bc 1413 06bf
000001d0: e9be 03bf 099b 2dbe 7138 9abf e834 26bf
000001e0: 5066 5d3e 3cfc 09bf 139d 22be d719 efbe
000001f0: a7dc 59be 63fa 42be d930 96be ab0e eabe

net.3.weight f4 [64, 128]
0.8133495 -0.11675377 0.11316694 0.57054305 -0.035459794 0.034307443 -0.29236552 -0.4491544
0.22261052 0.2581483 -0.41057166 0.29713935 0.22068866 -0.32902 0.021490052 -0.49750528
0.21702418 -0.010315861 -0.33367047 0.055655982 -0.3613746 -0.3412329 0.35179475 -0.74248266
-0.9368076 0.5187815 -0.26643103 -0.35748136 0.011251296 0.6312461 0.34154418 -0.083917625
0.25089097 -0.14085482 0.29735234 0.45233467 -0.30770335 -0.02364535 0.5003999 0.6510539
0.2030252 -0.37815017 -0.46536106 0.11767199 -0.44133806 0.04500759 0.014484969 -0.022969194
-0.2735157 0.30093342 0.23064896 -0.8133068 -0.57507885 0.1130366 0.026421266 0.24999812
-0.3861915 -0.3015195 -0.9432006 0.6445789 0.5183523 0.0702575 0.027815083 -0.13696188
-0.4894199 -0.16111474 1.0011365 -0.64346784 0.05188005 -0.3605348 0.3253864 0.4207529
-0.23466076 -0.0815536 0.053117074 -0.45520908 -0.28692377 1.1348355 -0.49651352 -0.043144643
1.3633142 0.42097998 -0.28504944 0.013522885 -0.56467354 0.31016126 -0.48037097 0.4148833
-0.5100691 0.10702451 0.8589329 -0.9330877 0.6795773 0.5390433 -0.13497928 -0.58164024
1.1952137 -1.0254793 0.7113246 -0.5167269 -0.032356016 0.024742512 -0.74101174 0.12551403
-0.40729114 -0.100256376 -0.852046 -0.80662453 -0.29785827 0.43379903 0.27316475 -0.34703237
-0.6187906 0.10586271 -0.4732458 0.13931651 0.672967 0.04631535 0.57534975 -0.47786677
1.1588982 -0.4756361 0.07219852 0.25019047 -0.31270364 -0.016236406 0.6368057 -0.40628964
0.5097346 -0.19761914 -0.21073052 0.4121789 -0.3392796 -0.052113324 -0.23205659 -0.22330739
0.03568559 -0.54011947 0.0794951 0.06362095 0.6227077 -0.29863235 0.1526944 -0.034154553
0.29722774 -0.3175954 -0.2257026 0.16339083 0.7550331 -0.4470466 -1.2211027 0.5604501
-0.056008294 -0.3001833 0.03379779 -0.03780462 0.20146832 -0.75695 0.30450428 -0.15830332
0.11826398 -0.41258508 0.13618466 -0.16126001 0.848338 -0.04922422 -0.23332532 0.25875717
0.22017026 0.021072429 0.43909785 -0.11734982 0.3067995 0.46947178 0.13320698 -0.06447072
-0.07101517 -0.18121336 -0.6415431 0.11987352 0.117879555 0.1445149 0.031531397 -0.06436985
-0.1428838 -0.0033278787 -0.2053231 -1.0783644 -0.7155295 0.38685292 -0.13981418 -0.055161104
0.38359863 0.037782077 -0.13115221 0.0073274914 -1.0145425 -0.23023012 0.18889888 0.17803824
-0.34921926 -0.106447734 0.28457257 0.06317227 0.01842556 -0.41775733 -0.53444356 -0.33095255
0.046939585 0.21635239 0.0071089803 -0.13138556 -0.33975908 0.38713568 0.09936331 -0.12873045
-0.008421637 0.24285047 -0.06682136 -0.17460664 -0.10676556 0.23740664 0.06954391 -0.39440817
-0.308454 0.09504424 0.15695079 -1.6580323 0.641459 0.09361949 -0.3828115 -0.17101061
-0.22696775 -0.26843455 -0.76967263 -0.28271204 -0.48744544 0.14295027 0.5821932 -0.8869625
0.12627712 0.1993759 -0.19141859 -0.45167685 -0.70648545 0.0065251198 0.41805893 -0.69516337
-0.38746658 0.10553466 -0.069321096 -0.3499031 -0.22697333 -0.002867968 -0.08373957 -0.1892991
00000000: ac37 503f 9a1c efbd 12c4 e73d 1c0f 123f
00000010: 4a3e 11bd f685 0c3d efb0 95be 91f7 e5be
00000020: 03f4 633e 042c 843e 7336 d2be a622 983e
00000030: 35fc 613e 4f75 a8be e80b b03c 03b9 febe
00000040: 963b 5e3e db03 29bc dbd6 aabe 87f7 633d
00000050: 1706 b9be 14b6 aebe 711e b43e 5813 3ebf
00000060: 9fd2 6fbf ddce 043f a669 88be cc07 b7be
00000070: 5b57 383c 5899 213f e1de ae3e 01dd abbd
00000080: c874 803e 3f3c 10be 913e 983e 6998 e73e
00000090: 4b8b 9dbe e5b3 c1bc 351a 003f 78ab 263f
000000a0: d7e5 4f3e e69c c1be ce43 eebe 03fe f03d
000000b0: 10f7 e1be e159 383d 5d52 6d3c e429 bcbc
000000c0: 400a 8cbe f213 9a3e 3e2f 6c3e e034 50bf
000000d0: 5e38 13bf bc7f e73d 6971 d83c 82ff 7f3e
000000e0: e4ba c5be c460 9abe 9875 71bf 1f03 253f
000000f0: bdb2 043f 2ae3 8f3d 75dc e33c bc3f 0cbe
00000100: 3f95 fabe 43fb 24be 3e25 803f 4fba 24bf
00000110: 2d80 543d 0498 b8be 0c99 a63e ed6c d73e
00000120: e94a 70be 9305 a7bd 4a91 593d 2a11 e9be
00000130: ace7 92be 4a42 913f 0537 febe 70b8 30bd
00000140: 1481 ae3f b08a d73e 00f2 91be 178f 5d3c
00000150: 728e 10bf 75cd 9e3e 2ff3 f5be 956b d43e
00000160: e393 02bf ab2f db3d 07e3 5b3f d6de 6ebf
00000170: c7f8 2d3f befe 093f 0238 0abe 60e6 14bf
00000180: c3fc 983f e842 83bf 5e19 363f 3748 04bf
00000190: be87 04bd cfb0 ca3c f2b2 3dbf c086 003e
000001a0: 7788 d0be 3753 cdbd b01f 5abf f27e 4ebf
000001b0: e180 98be e81a de3e 40dc 8b3e 3aae b1be
000001c0: 1069 1ebf 8cce d83d 464d f2be fda8 0e3e
000001d0: 9147 2c3f 2ab5 3d3d 1f4a 133f f4aa f4be
000001e0: c756 943f 9386 f3be d1dc 933d f718 803e
000001f0: b11a a0be 3602 85bc b305 233f 3205 d0be
00000200: f77d 023f ac5c 4abe bec9 57be 1d09 d33e
00000210: 0eb6 adbe c874 55bd 3ea0 6dbe b1aa 64be
00000220: 0e2b 123d 4545 0abf 54ce a23d b34b 823d
00000230: c669 1f3f 57e6 98be ec5b 1c3e a5e5 0bbd
00000240: 3c2e 983e dd9b a2be 951e 67be ed4f 273e
00000250: d949 413f 4be3 e4be 184d 9cbf a879 0f3f
00000260: f468 65bd a0b1 99be 8d6f 0a3d 04d9 1abd
00000270: b64d 4e3e 7ac7 41bf fce7 9b3e 441a 22be
00000280: 6334 f23d 5a3e d3be fe73 0b3e 5821 25be
00000290: ae2c 593f 569f 49bd d5ec 6ebe d27b 843e
000002a0: 5074 613e 16a0 ac3c 6fd1 e03e 1a55 f0bd
000002b0: d314 9d3e 9b5e f03e 6967 083e 3a09 84bd
000002c0: 6770 91bd ff8f 39be 2b3c 24bf 4080 f53d
000002d0: d66a f13d b7fb 133e 1127 013d 57d4 83bd
000002e0: 2250 12be 8a18 5abb 3840 52be d807 8abf
000002f0: f12c 37bf 9611 c63e 732b 0fbe 9cf0 61bd
00000300: 0a67 c43e 61c1 1a3d c44c 06be 741b f03b
00000310: 87dc 81bf 72c1 6bbe b56e 413e a84f 363e
00000320: decc b2be 4501 dabd 7fb3 913e 7760 813d
00000330: 33f1 963c 4ae4 d5be 4bd1 08bf 9d72 a9be
00000340: b943 403d 7b8b 5d3e 73f2 e83b f089 06be
00000350: e7f4 adbe a636 c63e fe7e cb3d ead1 03be
00000360: e8fa 09bc cbad 783e a3d9 88bd 15cc 32be
00000370: e7a7 dabd ba1a 733e 0a6d 8e3d deef c9be
00000380: afed 9dbe 8ea6 c23d b5b7 203e 673a d4bf
00000390: a836 243f 93bb bf3d deff c3be 681d 2fbe
000003a0: 3c6a 68be 4170 89be 4409 45bf a2bf 90be
000003b0: 7392 f9be 8e61 123e 9d0a 153f f90f 63bf
000003c0: ca4e 013e 3229 4c3e 3c03 44be 3042 e7be
000003d0: 3bdc 34bf acd0 d53b d20b d63e 3af6 31bf
000003e0: 0562 c6be 8e22 d83d 38f8 8dbd 8026 b3be
000003f0: b26b 68be 85f4 3bbb a77f abbd a0d7 41be

net.3.bias f4 [64]
-0.5254158 0.0970306 -0.3619484 -0.11171728 0.14607064 0.13467222 -2.388421 0.4351773
-0.43827772 -0.15846694 -1.1118642 0.4232247 -0.3549991 0.5477191 -0.27776423 0.48303038
0.18098994 -0.19389127 0.1706737 0.24785678 -2.098862 0.78081745 0.06456388 -0.19562156
-1.2889315 -0.79865336 -0.63310564 -0.005625225 0.5636804 0.53527796 -1.4573903 0.25806698
-3.280695 0.30105293 -0.3131902 -0.25969023 -0.16099884 0.5659808 -0.16139597 0.3178199
0.70227945 -1.8401648 0.80488324 0.24893272 -1.5649565 -2.9245992 0.5448171 -0.98663414
0.2950135 0.19481881 0.1152767 0.73417103 0.64604396 0.4015455 0.2547168 -2.710983
0.44252956 -3.6970448 -1.9969617 0.22572634 0.059368487 0.05815189 0.37223718 -0.45881402
00000000: a681 06bf fbb7 c63d 4d51 b9be 07cc e4bd
00000010: 8b93 153e 84e7 093e e4db 18c0 8fcf de3e
00000020: f065 e0be 2845 22be 9151 8ebf e8b0 d83e
00000030: 71c2 b5be 5237 0c3f 1d37 8ebe c24f f73e
00000040: 6d55 393e 6f8b 46be 16c5 2e3e 2bce 7d3e
00000050: c153 06c0 a7e3 473f 113a 843d 0551 48be
00000060: b5fb a4bf 8c74 4cbf 3613 22bf cf53 b8bb
00000070: 5c4d 103f fa07 093f c48b babf 5b21 843e
00000080: e8f6 51c0 9c23 9a3e 775a a0be 1ef6 84be
00000090: e1dc 24be 1ee4 103f fc44 25be 4ab9 a23e
000000a0: 96c8 333f 858a ebbf d40c 4e3f 38e8 7e3e
000000b0: 7f50 c8bf a22c 3bc0 2279 0b3f 0e94 7cbf
000000c0: 020c 973e 957e 473e 3116 ec3d a2f2 3b3f
000000d0: 2363 253f 5f97 cd3e 3e6a 823e bf80 2dc0
000000e0: 3c93 e23e 629c 6cc0 719c ffbf ce24 673e
000000f0: 5f2c 733d ad30 6e3d df95 be3e ace9 eabe

net.6.weight f4 [1, 64]
-0.11506127 0.042331826 0.16537368 -0.015373612 0.055727884 0.19183084 0.3543501 -0.037991043
0.26382685 0.20049797 0.15263422 -0.06964459 -0.030206695 -0.04050141 0.29181832 -0.10117005
-0.0031833 0.057307053 -0.0064152167 0.011033631 0.44307977 -0.062239517 0.0366633 0.33535698
0.24000369 0.23063049 0.034097757 -0.15147817 -0.13984855 -0.059323512 0.22426271 -0.108963765
0.7119737 0.14424446 0.20105734 0.08829728 0.08861323 -0.04528807 0.28259507 -0.024982177
-0.056645453 0.8226506 -0.18855423 0.032925382 0.21190277 0.49985984 -0.12105232 0.17454526
0.15609987 0.053906925 0.054071423 -0.0626618 -0.004343362 -0.006873519 -0.03870774 0.8628847
-0.0685684 0.73565006 0.38139388 -0.008379898 -0.025286548 0.07577482 0.08581226 -0.13324058
00000000: 3ea5 ebbd 2364 2d3d b857 293e 9ae1 7bbc
00000010: ec42 643d 4e6f 443e 606d b53e 7f9c 1bbd
00000020: 5014 873e 574f 4d3e 254c 1c3e d3a1 8ebd
00000030: 0874 f7bc cee4 25bd 3669 953e 3e32 cfbd
00000040: e99e 50bb cdba 6a3d bd36 d2bb 67c6 343c
00000050: 5adb e23e ddee 7ebd 422c 163d e9b3 ab3e
00000060: 87c3 753e 662a 6c3e 17aa 0b3d 181d 1bbe
00000070: 7534 0fbe 36fd 72bd 20a5 653e 6528 dfbd
00000080: e943 363f d2b4 133e fae1 4d3e 34d5 b43d
00000090: da7a b53d fc7f 39bd 4db0 903e 6ca7 ccbc
000000a0: 1005 68bd 3b99 523f 5c14 41be c4dc 063d
000000b0: 0afd 583e a1ed ff3e 47ea f7bd febb 323e
000000c0: a5d8 1f3e 82cd 5c3d ff79 5d3d d454 80bd
000000d0: c352 8ebb 423b e1bb 028c 1ebd 03e6 5c3f
000000e0: 976d 8cbd 9053 3c3f 0f46 c33e d74b 09bc
000000f0: bc25 cfbc d42f 9b3d 57be af3d 3870 08be
